data/client-1/data.pth (torch, 5575 bytes, 6 tensors)

l1.weight f4 [8, 60]
00000000: b5ba c33e aaac c5bd 83ed 903e e7e4 bcbe
00000010: 30d0 403f 4cb3 273f 7494 d03e 8e79 a73e
00000020: 75dd b1be 1abd 3a3e 8f28 b0be 9b5e 77bf
00000030: 7f4e d0be dd47 c83e 4d65 b0be 12a5 42be
00000040: 9a06 c4bd 9067 82be fc00 1f3f 025a c33e
00000050: 7776 05bf d3de 803e 28e0 0cbf d1a2 18bf
00000060: 212c 543f 3c15 003e b673 ccbe 0b66 d13e
00000070: 96d0 32bf 7341 43be 1d15 e03e e416 1bbf
00000080: e815 ab3e bbd6 00bf e580 ff3e ccd0 083e
00000090: 364f efbd 0abd cdbe 3cd8 fa3e bd5d 92be
000000a0: 9089 ae3e a215 08bf e73a d03e d926 6d3e
000000b0: 667a 9e3d 612f d13e caf5 cf3e 92d9 bdbe
000000c0: b6f7 b7bd 1e76 58be 1e5d 51be 6db3 003f
000000d0: ddc3 e23e c64e 07bf 64a0 363e f009 dc3e
000000e0: e598 a8be e8a2 9d3e fd15 cf3e 0617 f73e
000000f0: 2e60 71be 4962 c63e fb70 f0be 7ef0 a13e
00000100: 169d 8dbd bd3d 4f3f 4691 b1bc a789 ebbe
00000110: c05a f7be bcaf e1be 29db 0e3f 732d 4d3f
00000120: 7964 ea3d 1bef c33e 738e babe 9f32 de3e
00000130: f099 c3be 4428 a33e 5f8b 4f3f 5aa1 aa3e
00000140: c839 2e3f ca36 2abe f5ad 213f 2c8e de3e
00000150: c3bc d3bc 53d0 cabe c737 d73e 855f 9f3e
00000160: 8db1 aa3e 391c fa3e 6317 823e 9463 ff3e
00000170: 35ea 363f 56be f9bd 9bf3 e1be a09f 05bf
00000180: 17fe 133f ee5d 373f 6c6f de3e 9a01 9ebe
00000190: 3edf 903e ec3c d2be a453 d4bd 292a 28be
000001a0: 5540 d3be 9ec4 313f bb76 4a3e 1993 523c
000001b0: 608f 013f 8cda 00bf c7dc c33e 5409 5abf
000001c0: e45a 89be 0107 363f 1fdc c03e 2d70 173f
000001d0: 606b 9fbe 7ec6 d03e b3c4 5cbe 208a f63d
000001e0: 0e8b a5be 98e0 903e 442b 713e 3123 36bd
000001f0: bf81 0c3f 36a1 4c3f 6ddc 973e 1bf6 603e
00000200: 4c44 6f3e 1e03 9f3e 0d41 0c3d 097e c73e
00000210: 3ee8 8ebe d240 db3e 2fbf 98be 0388 553e
00000220: 2c2a a0be 3fac 7bbd 9195 373f 6e33 e63e
00000230: 41a0 97be 3e1f 54be 3046 61be 3fb1 293c
00000240: b5c4 913e a104 3bbe 5a5e 0bbe a781 0c3f
00000250: f160 c13e 0cea a53e 740f 853e 9d0c ac3e
00000260: fb5a 223f dd22 abbe a6c6 ccbd 6148 763e
00000270: 3a9b c33e dd4a c83d 59aa eb3e d589 9dbd
00000280: 250e ad3e 9f11 5a3e 1732 1d3e 72e3 633e
00000290: d284 7c3e 9712 1c3f ec2e 1a3f 9aec 8ebe
000002a0: cd74 b33e 6b2b 00bd eccc ec3e a8de 57bf
000002b0: d58e 02be eb93 c03c f55c 413e 74d0 0b3f
000002c0: 4f49 70be e5c9 de3e 6c1b 743e 2021 8b3e
000002d0: 8fb8 a3bd ff41 193f b4d9 d83e 91de 9dbd
000002e0: ff8d 273e fc2e ebbe c825 d93e 8c63 043f
000002f0: 0af7 253f a00d c73e 6176 81be 155e 823f
00000300: 012c 363f 3fd0 043f 859d 193f e4b5 043f
00000310: 9cd7 dc3e 957c fcbd f031 e1be 19ef 1dbe
00000320: 2114 9dbe 8702 6fbe ce81 a6be 3efe fbbe
00000330: af84 bb3e f093 b13e 6763 6cbe 4cca 8fbe
00000340: fb2d 2c3f 7e8f c93e 5a43 03be 42b1 4d3f
00000350: 1035 a1be afc9 023f 6973 bcbe 3ac8 0a3f
00000360: 1ec7 4e3f f1b2 433f d1b7 73be 451a df3e
00000370: 3046 90bd 35e7 1e3f 5222 b43e 006e a33e
00000380: 95be 053f 94c4 b2be ef92 0ebf bb3a f83e
00000390: 888c 033f ac23 033f 5c47 4c3f 97f1 45bf
000003a0: 11ed 6abe 6471 1b3f 0f38 55be 5173 c4bd
000003b0: 881c da3e 7e00 adbe 75a3 5a3e b8c4 703e
000003c0: 87bc 2fbe d4fd d63e 91ab 003f 8807 de3e
000003d0: b067 23bf b381 67be c94b 043f 575a be3e
000003e0: f112 293f 5eb0 bf3e fc1c 063f 53ee 3bbe
000003f0: f01b d53e 7b08 8f3e b0a0 063f 86be ae3e
0.38228384 -0.09652074 0.28306207 -0.3689339 0.7531767 0.6550796 0.4073826 0.32709926
-0.3473927 0.18236199 -0.34405944 -0.9662873 -0.40684888 0.39117327 -0.34452286 -0.19008282
-0.09571572 -0.25469637 0.6211088 0.38154608 -0.5213389 0.2517 -0.55029535 -0.5962344
0.82879835 0.125081 -0.3993203 0.40898165 -0.69849527 -0.19067936 0.43766108 -0.60581803
0.3341515 -0.5032765 0.49903026 0.133609 -0.1168503 -0.40183288 0.489931 -0.28587142
0.34089327 -0.5315801 0.4066994 0.2315935 0.077381894 0.4085646 0.4061721 -0.37080055
-0.08982794 -0.21138808 -0.20445678 0.5027378 0.44290057 -0.52854574 0.17834622 0.42976332
-0.3292915 0.3078835 0.40446463 0.48259753 -0.23571846 0.3874686 -0.46961197 0.31628793
-0.069147274 0.8095358 -0.021675717 -0.46003458 -0.48311424 -0.44079387 0.5580316 0.80147475
0.11444945 0.3826836 -0.36436805 0.43397996 -0.38203382 0.31866658 0.8107204 0.33326226
0.6805692 -0.16622463 0.6315606 0.43467844 -0.025846845 -0.39612064 0.42034742 0.31127563
0.33338585 0.48849657 0.25408468 0.4988066 0.7145112 -0.12194507 -0.4413117 -0.52196693
0.57809585 0.716277 0.43444383 -0.30860597 0.2829532 -0.41062105 -0.10367516 -0.16422333
-0.4126002 0.6944064 0.19771855 0.012852454 0.506094 -0.50333476 0.38254377 -0.85170484
-0.26827157 0.7110444 0.3766794 0.5915554 -0.31136608 0.40776438 -0.2155941 0.12038064
-0.32332653 0.2829635 0.23551661 -0.044467155 0.54885477 0.7993349 0.2966036 0.21968882
0.23365897 0.31057066 0.034241725 0.38963345 -0.27911562 0.4282289 -0.29833362 0.20852666
-0.31282175 -0.061443564 0.71712595 0.44961113 -0.29614452 -0.20715043 -0.2199943 0.0103572
0.28470388 -0.18263485 -0.13610211 0.54885334 0.37769273 0.32405126 0.25988352 0.33603373
0.63420075 -0.33425036 -0.09998827 0.24051048 0.38204366 0.09779904 0.46028402 -0.07692305
0.33799854 0.21295784 0.15351139 0.22254732 0.24660042 0.60965866 0.6022785 -0.27914888
0.3505005 -0.031291407 0.46250093 -0.8432412 -0.12749799 0.023508033 0.18883117 0.5461495
-0.23465465 0.43513408 0.23838586 0.2717371 -0.07994186 0.5986633 0.42353594 -0.07708467
0.16362761 -0.45934284 0.42411637 0.51714396 0.64830077 0.38877583 -0.25285628 1.0184962
0.71160895 0.5188026 0.6000598 0.51840043 0.43133247 -0.1232845 -0.43983412 -0.1542324
-0.3067942 -0.23340808 -0.32520908 -0.4921741 0.36624667 0.3468318 -0.23084794 -0.28084028
0.6725766 0.39367288 -0.12818661 0.803486 -0.31485796 0.51088995 -0.368068 0.5421177
0.8077258 0.7644492 -0.23800589 0.4357473 -0.07044637 0.62071544 0.35182434 0.3191986
0.5224393 -0.34915602 -0.5569295 0.48482308 0.5138631 0.51226306 0.79796386 -0.7732176
-0.22941996 0.60719895 -0.20822166 -0.09592307 0.42599893 -0.33789438 0.21351416 0.23512542
-0.17161761 0.4199053 0.5026179 0.4336512 -0.6383009 -0.2260807 0.5167814 0.371783
0.6604453 0.37439245 0.52387977 -0.18352632 0.41622877 0.27936158 0.5258894 0.34129733

l1.bias f4 [8]
00000000: aaec 193f 30ad 663f 5170 283f e7ec 0a3f
00000010: 3a70 523f 83a3 393f 3615 b33e c0dc 203f
0.60126746 0.90108013 0.6579638 0.54267734 0.82202494 0.72515124 0.3497712 0.6283684

l2.weight f4 [8, 8]
00000000: 57e7 783f fd4a 033f 5707 cd3e a964 8abf
00000010: f683 5cbc 655b 5b3f e0f5 8f3f 4cd1 823f
00000020: 3490 663f 49de 7a3f 024f 9c3f 40b0 013c
00000030: 1dbb 1bbf e9d8 59bf bf31 013f b9f1 0bbe
00000040: cb8d 46bf 629f a93f 93a0 413f 29f9 7b3f
00000050: b494 983f b106 7d3f 0159 81bf 6b02 06bf
00000060: b752 153f e61a 47bf a1eb 48bf 490f 0e3f
00000070: 9bfd da3e dee9 be3f 5fc3 e03e 8da7 a73f
00000080: c698 9ebe 08b9 2a3c 72ec 963d 08d1 2abd
00000090: 2704 6cbc 7f96 193d dda7 b23d 165e f9bd
000000a0: 6027 383f fd1b 2c3e 2b51 9d3f 6e61 d83e
000000b0: 40f5 903e 2c17 65bf c88f 48be 3f7c 1e3f
000000c0: 99a1 f0be fa2e 68bf f1f2 57be 8f9c 5e3f
000000d0: e46d 453f 9224 8a3e 6c2d d6bd b83b 0d3f
000000e0: e76c cdbd ed17 8c3d 42c7 803e 727f 953f
000000f0: 3cd1 02bd 7f68 cfbd 4814 cb3f b1f1 e7be
0.97227997 0.512863 0.40044662 -1.0811969 -0.013459196 0.8568633 1.124691 1.0220122
0.90063787 0.9799543 1.2211611 0.007915556 -0.6083239 -0.85096604 0.5046653 -0.13666429
-0.7756011 1.3251765 0.7563564 0.98427063 1.192038 0.98838335 -1.0105287 -0.5234744
0.5832934 -0.7777542 -0.7848454 0.55492073 0.4277161 1.4915121 0.43899056 1.3098007
-0.30975932 0.010420091 0.07369317 -0.041703254 -0.014405287 0.03749704 0.08723424 -0.121761486
0.7193508 0.16807552 1.2290395 0.42261833 0.2831211 -0.8948848 -0.19586098 0.61908334
-0.4699829 -0.9069668 -0.21088769 0.8695764 0.77120805 0.26981026 -0.10457882 0.5516925
-0.10030537 0.06840501 0.25152022 1.1679518 -0.031937823 -0.10127353 1.5865564 -0.45301583

l2.bias f4 [8]
00000000: af31 4d3f 2dd7 693d c7e4 2f3f 191e e93e
00000010: bcea 95be 6fdc 1bbe 5e69 97be 4432 2dbe
0.80153936 0.057089973 0.6870846 0.45530775 -0.2928065 -0.15220807 -0.29572576 -0.16913706

l3.weight f4 [9, 8]
00000000: 9687 bd3e d383 f03d c1db c3bf 9d91 503e
00000010: 0376 a7be 2cce 253d d8d8 9cbf 01f5 003e
00000020: 5838 093d e34f 02bd af0b 1d3a a1a4 32be
00000030: ad02 9b3e 5d7b 05bf 30e5 51bf 9233 0d3f
00000040: 8b0c 6ebf 733b 62bf ad46 4d3e 2b53 403e
00000050: 5704 183e d597 a0bf cbe4 513f 2444 873e
00000060: 4615 83bf 57f0 4abe c50f 123f 6ccf 9bbf
00000070: 4049 b23e 46bc 3a3e fc21 bebd 3da4 433e
00000080: b37b 643e 5129 163f b047 b8bc 7ec4 86bf
00000090: 45fb 30be 0ee2 113f 2f14 41bf 8eda 8fbf
000000a0: 8d11 dd3e e240 c2bf 8356 773f db95 eebc
000000b0: 1080 9a3e d5fd 7abf 2e65 81bf b89f 5ebf
000000c0: 1f27 a23e dbe0 103f 9a06 b7bf eca2 b8bf
000000d0: e566 5dbe 74bc 4e3e 3413 f6be e0c0 e83e
000000e0: 5579 e43d 5595 95bf bdba b0be d6ad 933e
000000f0: 5383 95be 2e05 0c3f 3867 bd3e a3b2 8abe
00000100: cef4 483f 8d15 a7bf 4dae 7ebf 089e 603f
00000110: 8385 28bd 6f4e a3bf 5131 3bbf 9d15 07bf
0.37017506 0.117438935 -1.5301439 0.20368047 -0.32707223 0.040479824 -1.2253675 0.12593462
0.033501 -0.031814467 0.00059908157 -0.17445613 0.3027548 -0.5214136 -0.8199034 0.55156815
-0.9298789 -0.8837196 0.20046492 0.18781726 0.14845406 -1.2546335 0.81989735 0.26419175
-1.0240867 -0.19818245 0.5705531 -1.2172675 0.3482151 0.18235883 -0.09283826 0.1910562
0.22312813 0.58656794 -0.02249512 -1.0528715 -0.17283352 0.5698556 -0.7542142 -1.1238573
0.43177453 -1.5176051 0.9661638 -0.029124191 0.3017583 -0.98043567 -1.0109003 -0.8696246
0.31670472 0.565931 -1.429889 -1.442472 -0.21621282 0.20189077 -0.48061526 0.45459652
0.11155955 -1.1686198 -0.3451747 0.28843564 -0.29201755 0.54695404 0.36992812 -0.27089414
0.7849854 -1.3053452 -0.9948471 0.87741137 -0.04114295 -1.2758311 -0.73122126 -0.52767354

l3.bias f4 [9]
00000000: fd54 b8be 41ac cfbe 8a32 98bd 310f f1bd
00000010: 5045 f53e 83bc 5c3d f15a 55be cdf6 7fbe
00000020: 6eb3 613e
-0.3600234 -0.40561107 -0.074315146 -0.11770476 0.47904444 0.053890716 -0.20835473 -0.24996491
0.22041103
