data/client-2/data.pth (torch, 5575 bytes, 6 tensors)

l1.weight f4 [8, 59]
0	0x3da7a14e	0.08185063
1	0xbdcd07c1	-0.100112446
2	0xbc136a01	-0.008997441
3	0x3c32dc79	0.010916823
4	0xbda73b31	-0.08165587
5	0x3f81d3cf	1.0142764
6	0x3ed01502	0.40641028
7	0x3f1f3a84	0.6219866
8	0xbddc284e	-0.10749875
9	0xbed4fcf1	-0.4159923
10	0x3e4de805	0.2010804
11	0xbe943308	-0.28945184
12	0xbdac5229	-0.08414108
13	0xbd2fde64	-0.042936698
14	0xbf1f681f	-0.6226825
15	0x3b0ff555	0.0021966298
16	0x3f060760	0.52355003
17	0x3f50f8ef	0.8162984
18	0xbe4656d3	-0.19369058
19	0xbe44f767	-0.19235002
20	0xbe9a22f6	-0.30104798
21	0xbe02bb7b	-0.1276683
22	0xbf0733fd	-0.528137
23	0x3f4822d1	0.78178126
24	0xbdcd5649	-0.10026223
25	0x3ecf4ee6	0.40489882
26	0xbd3fd664	-0.04683532
27	0xbedb02c7	-0.42775556
28	0x3f19111d	0.5979174
29	0xbda63629	-0.08115799
30	0x3ea982a4	0.33107483
31	0xbd387286	-0.045031093
32	0xbe354156	-0.17700705
33	0x3f0f8e00	0.5607605
34	0x3f5fb2d5	0.8738225
35	0x3f459c97	0.7719206
36	0x3f24820f	0.64260954
37	0xbea28fa2	-0.31750208
38	0xbf169e4f	-0.5883531
39	0xbc8a9539	-0.016916858
40	0xbd09efb9	-0.033675883
41	0x3da07f1f	0.078367464
42	0xbe274109	-0.16333403
43	0xbe31aa61	-0.1735015
44	0xbe70f4f7	-0.23530947
45	0xbe0f120d	-0.1397173
46	0xbdfe931e	-0.12430404
47	0xbe316392	-0.1732314
48	0xbdfffd0d	-0.124994375
49	0xbe9a022c	-0.30079782
50	0x3ca25da3	0.01982004
51	0x3ed2239e	0.410428
52	0x3ef61dc8	0.48069596
53	0x3f7dc6a3	0.9913122
54	0x3f41a156	0.75636804
55	0x3f776cf2	0.9665061
56	0xbe319c45	-0.17344768
57	0xbd7d61e5	-0.061860938
58	0x3f84c73e	1.0373304
59	0x3f244e32	0.64181817
60	0x3dd79999	0.10527343
61	0x3d2719e7	0.040796187
62	0x3e419da6	0.18907794
63	0x3e332bef	0.17497228
64	0xbe89d1b6	-0.2691781
65	0x3ecb2866	0.3967926
66	0xbc16bdbc	-0.00920051
67	0xbdc7e6e7	-0.09760838
68	0x3ee6683b	0.45001397
69	0xbc959688	-0.018260255
70	0x3f2f0add	0.6837595
71	0xbc782004	-0.015144352
72	0x3f74c8df	0.95619005
73	0x3f1e6ea3	0.6188757
74	0x3cb1b862	0.021694366
75	0xbec27d84	-0.37986386
76	0x3c835068	0.016029552
77	0x3b14e82c	0.0022721393
78	0x3d15a316	0.036532484
79	0x3f4cab83	0.79949206
80	0x3f4944d4	0.7862065
81	0x3f2a15b8	0.6643939
82	0xbe099f9f	-0.13439797
83	0x3f2bc752	0.67101014
84	0xbd85c690	-0.065320134
85	0x3eaf3481	0.34219745
86	0x3ebe8f75	0.37218824
87	0xbd64f512	-0.05589778
88	0x3ea8fd76	0.33005875
89	0xbdc18078	-0.094483316
90	0x3dca70a3	0.09884765
91	0x3d82dbe3	0.06389596
92	0xbe32947d	-0.17439456
93	0xbec4b959	-0.3842266
94	0xbdf1534b	-0.11783465
95	0xbe6604fe	-0.22462842
96	0x3ed57bbf	0.41695973
97	0x3f1d77b5	0.61510783
98	0x3d04732d	0.032336403
99	0x3bb49d10	0.0055118874
100	0x3ce8bc5c	0.02841013
101	0xbdcb72ba	-0.09933992
102	0x3f10c2c3	0.5654718
103	0x3ea99f7d	0.33129492
104	0x3e5c0153	0.2148488
105	0x3f0c5596	0.54818094
106	0x3f378412	0.716859
107	0x3e9b3c10	0.30319262
108	0x3ef85b0e	0.4850697
109	0xbdcd40dd	-0.10022137
110	0xbda3fec6	-0.080075786
111	0xbdf58959	-0.119890876
112	0xbf390eb5	-0.72288066
113	0xbe91f3a0	-0.28506184
114	0xbd8dc131	-0.06921614
115	0x3f065167	0.5246796
116	0x3f10f6e9	0.56626755
117	0xbf1a2f7d	-0.6022871
118	0xbdf91ddb	-0.121638976
119	0x3f3563a3	0.7085516
120	0x3f00488e	0.5011071
121	0x3f046bb7	0.5172686
122	0x3f34c2b0	0.7060957
123	0x3f1525d1	0.5826083
124	0x3e0747e6	0.13211021
125	0x3f6b9682	0.9202653
126	0x3ee8f4fc	0.45499408
127	0x3f433948	0.7625928
128	0x3ec5883c	0.385805
129	0x3d6a6cdf	0.057232734
130	0x3ee2cd8d	0.44297448
131	0x3f7543c5	0.95806533
132	0x3d3aadea	0.045576014
133	0x3ead9ca4	0.3390857
134	0x3eda9a21	0.42695716
135	0x3f5e9c52	0.86957276
136	0x3f0bda38	0.5462985
137	0x3eba3495	0.36368242
138	0xbef9c0f5	-0.48780027
139	0x3f625d20	0.8842335
140	0xbeff9530	-0.4991851
141	0x3f3eda03	0.7455141
142	0xbd829c55	-0.06377474
143	0x3f3d00ba	0.73829234
144	0xbf261577	-0.648765
145	0x3f67f400	0.9060669
146	0x3f588e1a	0.8459183
147	0xbf19fc97	-0.60151047
148	0x3f643220	0.89138985
149	0x3ef0997a	0.46992093
150	0x3f0db5dc	0.5535562
151	0xbe9a7ef4	-0.30174983
152	0x3edf8f87	0.4366419
153	0x3f2b4daa	0.6691538
154	0xbea92353	-0.33034763
155	0x3d7a219e	0.061067216
156	0xbeed1e04	-0.46311963
157	0x3f0e900b	0.5568854
158	0x3e3efaac	0.18650311
159	0x3f055668	0.5208497
160	0x3edfd8ca	0.43720084
161	0x3eaca267	0.33717653
162	0x3f39f12f	0.7263364
163	0x3f442865	0.7662414
164	0xbe9a3d40	-0.30124855
165	0x3f4c733a	0.7986332
166	0x3f3880d3	0.7207157
167	0xbf164eb8	-0.58713865
168	0x3ea579d4	0.3231951
169	0x3f4bf370	0.7966833
170	0x3e9bc872	0.30426365
171	0xbf5e9f32	-0.8696166
172	0x3f1c9f9c	0.61181045
173	0x3f170c26	0.5900291
174	0xbf156eb9	-0.58372074
175	0x3f1926aa	0.5982462
176	0x3f5f0851	0.87122065
177	0x3dd362a8	0.103215516
178	0x3d182b31	0.037150566
179	0x3c1ad608	0.009450443
180	0x3dea57a9	0.11442501
181	0x3d7ce4e9	0.061741743
182	0x3d220240	0.039552927
183	0xbe006dcc	-0.12541884
184	0x3da8aada	0.08235712
185	0x3c9b5eb3	0.018966055
186	0xbd5ca6a0	-0.053869843
187	0x3dc1ad83	0.09456923
188	0xbd6b6dbd	-0.0574777
189	0xbc966882	-0.01836038
190	0xbd22984b	-0.03969602
191	0xbe039f0f	-0.12853645
192	0xbdf829ef	-0.12117373
193	0x3bf57ab5	0.0074914345
194	0xbda494d2	-0.08036198
195	0xbe024f8a	-0.12725654
196	0x3d25d64c	0.040487573
197	0xbd9be11f	-0.07611298
198	0x3c98fb8f	0.01867464
199	0x3dcc277c	0.099684685
200	0x3d0d5106	0.034501098
201	0x3c5c4f66	0.013446664
202	0xbdb952c3	-0.09048989
203	0xbc3ebf95	-0.011642356
204	0xbd1e559e	-0.03865587
205	0xbde85668	-0.11344606
206	0xbd4b27f7	-0.04959866
207	0xbdae4521	-0.08509279
208	0x3db512a2	0.088414446
209	0xbd2e8c06	-0.042614006
210	0xbda579cc	-0.080798715
211	0x3c8ecf32	0.017432783
212	0x3c3da278	0.01157438
213	0xbda827f5	-0.08210746
214	0x3c1ac317	0.009445927
215	0x3da62e47	0.081142955
216	0xbddc4a3e	-0.10756348
217	0xbdde1285	-0.10843376
218	0x3d4f392f	0.050591644
219	0xbdb87a31	-0.09007681
220	0xbd741dff	-0.05959892
221	0x3dc3ff75	0.09570209
222	0xbd1554bd	-0.036457766
223	0xbd9268dc	-0.071489066
224	0xbde6932e	-0.11258541
225	0x3dbc1976	0.09184544
226	0xbdbe4e49	-0.092922755
227	0xbda1e70e	-0.07905398
228	0xbc4ff6ef	-0.012693151
229	0x3d22bc29	0.039730225
230	0x3d8272e8	0.06369573
231	0xbd9b46f9	-0.07581896
232	0xbdeded95	-0.11617581
233	0xbdad1f87	-0.08453279
234	0xbde89c43	-0.113579296
235	0x3c22626a	0.009911159
236	0xbd90ab41	-0.07063914
237	0xbda1a928	-0.07893592
238	0x3f24d8d2	0.6439334
239	0xbcd7c496	-0.026338857
240	0xbd8c6e02	-0.0685692
241	0xbf4c73e6	-0.79864347
242	0x3eb66772	0.35625798
243	0xb9f39c49	-0.00046465013
244	0x3f2c2a13	0.672517
245	0x3dcfb71d	0.10142348
246	0x3e9ab1b3	0.302137
247	0xbf215049	-0.6301313
248	0x3f47332e	0.7781247
249	0x3fb25745	1.3932883
250	0x3f3328f0	0.6998434
251	0x3f5f8085	0.8730548
252	0x3e184936	0.14871678
253	0xbef652a7	-0.48109934
254	0x3b8a65c3	0.0042235567
255	0x3f37db10	0.7181864

l1.bias f4 [8]
0	0x3e99dc87	0.30051062
1	0x3fa9e3af	1.3272609
2	0x3f164aed	0.5870808
3	0xbe00049a	-0.12501755
4	0x3f4093f5	0.75225765
5	0x3ea20422	0.31643778
6	0x3f36d215	0.7141431
7	0x3f0c118a	0.5471426

l2.weight f4 [8, 8]
0	0x3e85e618	0.2615211
1	0xbe003ab5	-0.12522395
2	0xbd0a1f51	-0.033721272
3	0x3d7564a9	0.05991045
4	0x3fcdfb2e	1.6092279
5	0x3d8d5168	0.06900293
6	0x3fae2fb9	1.3608314
7	0x3fcacc48	1.5843592
8	0xbd8f1093	-0.06985583
9	0xbe5be71a	-0.21474877
10	0xbe545990	-0.2073729
11	0xbd9ac7ec	-0.07557663
12	0xbe9ba3c8	-0.30398393
13	0xbcdb9d5a	-0.02680843
14	0x3e542060	0.20715475
15	0x3d147e1b	0.036253076
16	0xbea22640	-0.31669807
17	0xbcdfb62b	-0.027308544
18	0xbc9753ba	-0.018472541
19	0xbe66916e	-0.22516415
20	0xbd2e0c9c	-0.042492494
21	0xbea30767	-0.31841585
22	0xbe7eddb7	-0.24889265
23	0x3e2a06bb	0.1660413
24	0xbf63d145	-0.88991195
25	0x3fd999de	1.7000082
26	0xbf859be4	-1.0438199
27	0x3e950e8b	0.29112658
28	0x3ebef4fd	0.37296286
29	0xbf5be324	-0.85893464
30	0x3f7eddc4	0.9955714
31	0x3f134082	0.57520306
32	0x3bb0dee0	0.0053976625
33	0x3cd78297	0.026307387
34	0xbe6f0d79	-0.23344983
35	0x3d3b9ecd	0.04580574
36	0xbcd5f39b	-0.026117137
37	0xbdc96f8d	-0.0983573
38	0x3e83cc5e	0.25741857
39	0xbeaf41b8	-0.34229827
40	0xbe87e855	-0.26544443
41	0x3f5eb1df	0.8699016
42	0x3fbbeb7c	1.4681239
43	0xbdabeee6	-0.08395176
44	0x3f775595	0.9661496
45	0x3e495e1d	0.19664808
46	0xbf89c83c	-1.0764232
47	0xbf3ad394	-0.7297909
48	0x3fa56aa1	1.2923166
49	0xbf24f146	-0.64430654
50	0x3ebd9e00	0.37034607
51	0xbd775b0c	-0.060389563
52	0xbf8351ab	-1.0259298
53	0x3faa81f9	1.3320915
54	0xbe677c82	-0.2260609
55	0xbe3496dd	-0.17635675
56	0x3f3a68b7	0.7281603
57	0xbf05e651	-0.5230456
58	0x3fb4ceab	1.412557
59	0xbe7cb167	-0.24677049
60	0xbf0aa749	-0.54161507
61	0xbf774d2c	-0.9660213
62	0x3f7feb6b	0.99968594
63	0x3f18b036	0.59643877

l2.bias f4 [8]
0	0x3d7b4b55	0.06135114
1	0xbe567a0e	-0.20944998
2	0xbdd53d92	-0.10412134
3	0x3f8b025c	1.0860095
4	0xbea76703	-0.3269578
5	0x3f0f0370	0.5586462
6	0x3ec1a0aa	0.3781789
7	0x3eba30c7	0.3636534

l3.weight f4 [9, 8]
0	0xbeb3f3aa	-0.35146838
1	0x3e96d20f	0.29457137
2	0xbe624c41	-0.22099401
3	0xbf74b20f	-0.95584196
4	0xbe2f57bc	-0.17123312
5	0xbfa9963a	-1.324897
6	0x3f8a59a8	1.0808611
7	0x3d0e7c8d	0.03478675
8	0x3e110975	0.14163764
9	0xbe8caa2e	-0.27473587
10	0x3db035ca	0.086040094
11	0xbf2abb41	-0.66691977
12	0x3e7ddebf	0.24792002
13	0xbffd897e	-1.9807584
14	0x3dac20b5	0.08404676
15	0x3f28b579	0.65901905
16	0x3f226267	0.634314
17	0xbdc4fa37	-0.09618037
18	0xbe765bbf	-0.24058436
19	0xbf990057	-1.1953229
20	0x3e168cd5	0.1470216
21	0xbf16c868	-0.58899546
22	0xbfa1522c	-1.2603202
23	0x3eed4efc	0.46349323
24	0xbf83eb05	-1.0306097
25	0xbd8480d1	-0.06469882
26	0x3bc1e46c	0.0059171226
27	0xbf8d4997	-1.1038083
28	0xbda383a3	-0.07984092
29	0x3e4ab9d0	0.19797444
30	0x3ef4137f	0.47671124
31	0x3ea1eb01	0.31624606
32	0x3ea9a13e	0.3313083
33	0xbeaf3e54	-0.3422724
34	0x3d3901ec	0.04516785
35	0x3e62399e	0.22092292
36	0x3e1f71ce	0.15570757
37	0xbe076ec2	-0.13225845
38	0xbfa4d6fa	-1.2878106
39	0xbee04808	-0.43804955
40	0xbf85062a	-1.0392506
41	0x3d7a526f	0.06111377
42	0xbe3838b8	-0.17990386
43	0xbf9139a3	-1.1345714
44	0x3dd8b202	0.10580827
45	0x3f54c484	0.8311236
46	0xbf9e60d4	-1.23733
47	0x3ec67d14	0.38767302
48	0x3f16917b	0.58815736
49	0xbb644a60	-0.003483437
50	0xbdbe8774	-0.093031794
51	0x3f3c6a33	0.7359955
52	0x3e4d6dc3	0.20061402
53	0xbff13439	-1.8844062
54	0xbeeda42f	-0.46414325
55	0xbf145c4b	-0.5795333
56	0xbfc665f7	-1.5499867
57	0x3dc39fff	0.09552001
58	0x3e524612	0.20534542
59	0x3f983ffe	1.1894529
60	0x3eb4858f	0.35258147
61	0x3d6e6aa7	0.05820718
62	0xbf8c0625	-1.0939375
63	0xbf06ad40	-0.5260811
64	0x3f0ca531	0.5493956
65	0x3cf2c014	0.029632606
66	0xbd8b7c35	-0.068108
67	0xbfd2f064	-1.6479611
68	0x3e98cbba	0.2984293
69	0x3ef16f83	0.4715539
70	0xbf261d9f	-0.6488895
71	0xbfa84979	-1.3147422

l3.bias f4 [9]
0	0x3ddd1f17	0.107969455
1	0xbd89a304	-0.06720546
2	0xbe7a495a	-0.24442044
3	0xbda3c1a9	-0.07995922
4	0x3d1b30ab	0.03788821
5	0x3d1ef29e	0.038805597
6	0xbb4255e7	-0.0029653253
7	0x3f3ea251	0.74466425
8	0x3cc86664	0.024462886
